…
device_id: 2
I0817 20:50:17.144482 29967 solver.cpp:81] Creating training net from train_net file: /home/liebmatt/caffe/models/uni_augsburg_swim/train.prototxt
I0817 20:50:17.145208 29967 net.cpp:49] Initializing net from parameters: 
name: "CaffeNet"
state {
  phase: TRAIN
}
layer {
  name: "data"
  type: "ImageData"
  top: "data"
  top: "label"
  include {
    phase: TRAIN
  }
  transform_param {
  }
  image_data_param {
    source: "/data/raid_ssd/Datasets/FlickrLogos_v3/train/filelist_abs.txt"
    batch_size: 1
    new_height: 227
    new_width: 227
  }
}
layer {
  name: "conv1"
  type: "Convolution"
  bottom: "data"
  top: "conv1"
  param {
    lr_mult: 1
    decay_mult: 1
  }
  param {
    lr_mult: 2
    decay_mult: 0
  }
  convolution_param {
    num_output: 96
    kernel_size: 11
    stride: 4
    weight_filler {
      type: "gaussian"
      std: 0.01
    }
    bias_filler {
      type: "constant"
      value: 0
    }
  }
}
layer {
  name: "relu1"
  type: "ReLU"
  bottom: "conv1"
  top: "conv1"
}
layer {
  name: "pool1"
  type: "Pooling"
  bottom: "conv1"
  top: "pool1"
  pooling_param {
    pool: MAX
    kernel_size: 3
    stride: 2
  }
}
layer {
  name: "norm1"
  type: "LRN"
  bottom: "pool1"
  top: "norm1"
  lrn_param {
    local_size: 5
    alpha: 0.0001
    beta: 0.75
  }
}
layer {
  name: "conv2"
  type: "Convolution"
  bottom: "norm1"
  top: "conv2"
  param {
    lr_mult: 1
    decay_mult: 1
  }
  param {
    lr_mult: 2
    decay_mult: 0
  }
  convolution_param {
    num_output: 256
    pad: 2
    kernel_size: 5
    group: 2
    weight_filler {
      type: "gaussian"
      std: 0.01
    }
    bias_filler {
      type: "constant"
      value: 1
    }
  }
}
layer {
  name: "relu2"
  type: "ReLU"
  bottom: "conv2"
  top: "conv2"
}
layer {
  name: "pool2"
  type: "Pooling"
  bottom: "conv2"
  top: "pool2"
  pooling_param {
    pool: MAX
    kernel_size: 3
    stride: 2
  }
}
layer {
  name: "norm2"
  type: "LRN"
  bottom: "pool2"
  top: "norm2"
  lrn_param {
    local_size: 5
    alpha: 0.0001
    beta: 0.75
  }
}
layer {
  name: "conv3"
  type: "Convolution"
  bottom: "norm2"
  top: "conv3"
  param {
    lr_mult: 1
    decay_mult: 1
  }
  param {
    lr_mult: 2
    decay_mult: 0
  }
  convolution_param {
    num_output: 384
    pad: 1
    kernel_size: 3
    weight_filler {
      type: "gaussian"
      std: 0.01
    }
    bias_filler {
      type: "constant"
      value: 0
    }
  }
}
layer {
  name: "relu3"
  type: "ReLU"
  bottom: "conv3"
  top: "conv3"
}
layer {
  name: "conv4"
  type: "Convolution"
  bottom: "conv3"
  top: "conv4"
  param {
    lr_mult: 1
    decay_mult: 1
  }
  param {
    lr_mult: 2
    decay_mult: 0
  }
  convolution_param {
    num_output: 384
    pad: 1
    kernel_size: 3
    group: 2
    weight_filler {
      type: "gaussian"
      std: 0.01
    }
    bias_filler {
      type: "constant"
      value: 1
    }
  }
}
layer {
  name: "relu4"
  type: "ReLU"
  bottom: "conv4"
  top: "conv4"
}
layer {
  name: "conv5"
  type: "Convolution"
  bottom: "conv4"
  top: "conv5"
  param {
    lr_mult: 1
    decay_mult: 1
  }
  param {
    lr_mult: 2
    decay_mult: 0
  }
  convolution_param {
    num_output: 256
    pad: 1
    kernel_size: 3
    group: 2
    weight_filler {
      type: "gaussian"
      std: 0.01
    }
    bias_filler {
      type: "constant"
      value: 1
    }
  }
}
layer {
  name: "relu5"
  type: "ReLU"
  bottom: "conv5"
  top: "conv5"
}
layer {
  name: "pool5"
  type: "Pooling"
  bottom: "conv5"
  top: "pool5"
  pooling_param {
    pool: MAX
    kernel_size: 3
    stride: 2
  }
}
layer {
  name: "fc6"
  type: "InnerProduct"
  bottom: "pool5"
  top: "fc6"
  param {
    lr_mult: 1
    decay_mult: 1
  }
  param {
    lr_mult: 2
    decay_mult: 0
  }
  inner_product_param {
    num_output: 4096
    weight_filler {
      type: "gaussian"
      std: 0.005
    }
    bias_filler {
      type: "constant"
      value: 1
    }
  }
}
layer {
  name: "relu6"
  type: "ReLU"
  bottom: "fc6"
  top: "fc6"
}
layer {
  name: "drop6"
  type: "Dropout"
  bottom: "fc6"
  top: "fc6"
  dropout_param {
    dropout_ratio: 0.5
  }
}
layer {
  name: "fc7"
  type: "InnerProduct"
  bottom: "fc6"
  top: "fc7"
  param {
    lr_mult: 1
    decay_mult: 1
  }
  param {
    lr_mult: 2
    decay_mult: 0
  }
  inner_product_param {
    num_output: 4096
    weight_filler {
      type: "gaussian"
      std: 0.005
    }
    bias_filler {
      type: "constant"
      value: 1
    }
  }
}
layer {
  name: "relu7"
  type: "ReLU"
  bottom: "fc7"
  top: "fc7"
}
layer {
  name: "drop7"
  type: "Dropout"
  bottom: "fc7"
  top: "fc7"
  dropout_param {
    dropout_ratio: 0.5
  }
}
layer {
  name: "fc8_swim"
  type: "InnerProduct"
  bottom: "fc7"
  top: "fc8"
  param {
    lr_mult: 1
    decay_mult: 1
  }
  param {
    lr_mult: 2
    decay_mult: 0
  }
  inner_product_param {
    num_output: 14
    weight_filler {
      type: "gaussian"
      std: 0.01
    }
    bias_filler {
      type: "constant"
      value: 0
    }
  }
}
layer {
  name: "loss"
  type: "SoftmaxWithLoss"
  bottom: "fc8"
  bottom: "label"
}
I0817 20:50:17.145344 29967 layer_factory.hpp:77] Creating layer data
I0817 20:50:17.145391 29967 net.cpp:91] Creating Layer data
I0817 20:50:17.145401 29967 net.cpp:399] data -> data
I0817 20:50:17.145431 29967 net.cpp:399] data -> label
I0817 20:50:17.145455 29967 image_data_layer.cpp:38] Opening file /data/raid_ssd/Datasets/FlickrLogos_v3/train/filelist_abs.txt
I0817 20:50:17.145766 29967 image_data_layer.cpp:58] A total of 833 images.
I0817 20:50:17.175029 29967 image_data_layer.cpp:85] output data size: 1,3,227,227
I0817 20:50:17.177769 29967 net.cpp:141] Setting up data
I0817 20:50:17.177817 29967 net.cpp:148] Top shape: 1 3 227 227 (154587)
I0817 20:50:17.177825 29967 net.cpp:148] Top shape: 1 (1)
I0817 20:50:17.177829 29967 net.cpp:156] Memory required for data: 618352
I0817 20:50:17.177840 29967 layer_factory.hpp:77] Creating layer conv1
I0817 20:50:17.177868 29967 net.cpp:91] Creating Layer conv1
I0817 20:50:17.177877 29967 net.cpp:425] conv1 <- data
I0817 20:50:17.177892 29967 net.cpp:399] conv1 -> conv1
I0817 20:50:17.180230 29967 net.cpp:141] Setting up conv1
I0817 20:50:17.180261 29967 net.cpp:148] Top shape: 1 96 55 55 (290400)
I0817 20:50:17.180266 29967 net.cpp:156] Memory required for data: 1779952
I0817 20:50:17.180281 29967 layer_factory.hpp:77] Creating layer relu1
I0817 20:50:17.180291 29967 net.cpp:91] Creating Layer relu1
I0817 20:50:17.180299 29967 net.cpp:425] relu1 <- conv1
I0817 20:50:17.180305 29967 net.cpp:386] relu1 -> conv1 (in-place)
I0817 20:50:17.180320 29967 net.cpp:141] Setting up relu1
I0817 20:50:17.180325 29967 net.cpp:148] Top shape: 1 96 55 55 (290400)
I0817 20:50:17.180328 29967 net.cpp:156] Memory required for data: 2941552
I0817 20:50:17.180332 29967 layer_factory.hpp:77] Creating layer pool1
I0817 20:50:17.180341 29967 net.cpp:91] Creating Layer pool1
I0817 20:50:17.180344 29967 net.cpp:425] pool1 <- conv1
I0817 20:50:17.180349 29967 net.cpp:399] pool1 -> pool1
I0817 20:50:17.180397 29967 net.cpp:141] Setting up pool1
I0817 20:50:17.180408 29967 net.cpp:148] Top shape: 1 96 27 27 (69984)
I0817 20:50:17.180413 29967 net.cpp:156] Memory required for data: 3221488
I0817 20:50:17.180416 29967 layer_factory.hpp:77] Creating layer norm1
I0817 20:50:17.180426 29967 net.cpp:91] Creating Layer norm1
I0817 20:50:17.180430 29967 net.cpp:425] norm1 <- pool1
I0817 20:50:17.180436 29967 net.cpp:399] norm1 -> norm1
I0817 20:50:17.180469 29967 net.cpp:141] Setting up norm1
I0817 20:50:17.180479 29967 net.cpp:148] Top shape: 1 96 27 27 (69984)
I0817 20:50:17.180482 29967 net.cpp:156] Memory required for data: 3501424
I0817 20:50:17.180486 29967 layer_factory.hpp:77] Creating layer conv2
I0817 20:50:17.180513 29967 net.cpp:91] Creating Layer conv2
I0817 20:50:17.180521 29967 net.cpp:425] conv2 <- norm1
I0817 20:50:17.180527 29967 net.cpp:399] conv2 -> conv2
I0817 20:50:17.190601 29967 net.cpp:141] Setting up conv2
I0817 20:50:17.190624 29967 net.cpp:148] Top shape: 1 256 27 27 (186624)
I0817 20:50:17.190629 29967 net.cpp:156] Memory required for data: 4247920
I0817 20:50:17.190640 29967 layer_factory.hpp:77] Creating layer relu2
I0817 20:50:17.190650 29967 net.cpp:91] Creating Layer relu2
I0817 20:50:17.190654 29967 net.cpp:425] relu2 <- conv2
I0817 20:50:17.190661 29967 net.cpp:386] relu2 -> conv2 (in-place)
I0817 20:50:17.190670 29967 net.cpp:141] Setting up relu2
I0817 20:50:17.190677 29967 net.cpp:148] Top shape: 1 256 27 27 (186624)
I0817 20:50:17.190680 29967 net.cpp:156] Memory required for data: 4994416
I0817 20:50:17.190685 29967 layer_factory.hpp:77] Creating layer pool2
I0817 20:50:17.190690 29967 net.cpp:91] Creating Layer pool2
I0817 20:50:17.190695 29967 net.cpp:425] pool2 <- conv2
I0817 20:50:17.190703 29967 net.cpp:399] pool2 -> pool2
I0817 20:50:17.190738 29967 net.cpp:141] Setting up pool2
I0817 20:50:17.190747 29967 net.cpp:148] Top shape: 1 256 13 13 (43264)
I0817 20:50:17.190752 29967 net.cpp:156] Memory required for data: 5167472
I0817 20:50:17.190755 29967 layer_factory.hpp:77] Creating layer norm2
I0817 20:50:17.190763 29967 net.cpp:91] Creating Layer norm2
I0817 20:50:17.190768 29967 net.cpp:425] norm2 <- pool2
I0817 20:50:17.190773 29967 net.cpp:399] norm2 -> norm2
I0817 20:50:17.190803 29967 net.cpp:141] Setting up norm2
I0817 20:50:17.190810 29967 net.cpp:148] Top shape: 1 256 13 13 (43264)
I0817 20:50:17.190814 29967 net.cpp:156] Memory required for data: 5340528
I0817 20:50:17.190817 29967 layer_factory.hpp:77] Creating layer conv3
I0817 20:50:17.190829 29967 net.cpp:91] Creating Layer conv3
I0817 20:50:17.190834 29967 net.cpp:425] conv3 <- norm2
I0817 20:50:17.190841 29967 net.cpp:399] conv3 -> conv3
I0817 20:50:17.217865 29967 net.cpp:141] Setting up conv3
I0817 20:50:17.217901 29967 net.cpp:148] Top shape: 1 384 13 13 (64896)
I0817 20:50:17.217906 29967 net.cpp:156] Memory required for data: 5600112
I0817 20:50:17.217921 29967 layer_factory.hpp:77] Creating layer relu3
I0817 20:50:17.217933 29967 net.cpp:91] Creating Layer relu3
I0817 20:50:17.217938 29967 net.cpp:425] relu3 <- conv3
I0817 20:50:17.217946 29967 net.cpp:386] relu3 -> conv3 (in-place)
I0817 20:50:17.217958 29967 net.cpp:141] Setting up relu3
I0817 20:50:17.217964 29967 net.cpp:148] Top shape: 1 384 13 13 (64896)
I0817 20:50:17.217967 29967 net.cpp:156] Memory required for data: 5859696
I0817 20:50:17.217972 29967 layer_factory.hpp:77] Creating layer conv4
I0817 20:50:17.217988 29967 net.cpp:91] Creating Layer conv4
I0817 20:50:17.217993 29967 net.cpp:425] conv4 <- conv3
I0817 20:50:17.218001 29967 net.cpp:399] conv4 -> conv4
I0817 20:50:17.238471 29967 net.cpp:141] Setting up conv4
I0817 20:50:17.238507 29967 net.cpp:148] Top shape: 1 384 13 13 (64896)
I0817 20:50:17.238512 29967 net.cpp:156] Memory required for data: 6119280
I0817 20:50:17.238523 29967 layer_factory.hpp:77] Creating layer relu4
I0817 20:50:17.238538 29967 net.cpp:91] Creating Layer relu4
I0817 20:50:17.238543 29967 net.cpp:425] relu4 <- conv4
I0817 20:50:17.238553 29967 net.cpp:386] relu4 -> conv4 (in-place)
I0817 20:50:17.238564 29967 net.cpp:141] Setting up relu4
I0817 20:50:17.238569 29967 net.cpp:148] Top shape: 1 384 13 13 (64896)
I0817 20:50:17.238572 29967 net.cpp:156] Memory required for data: 6378864
I0817 20:50:17.238576 29967 layer_factory.hpp:77] Creating layer conv5
I0817 20:50:17.238590 29967 net.cpp:91] Creating Layer conv5
I0817 20:50:17.238598 29967 net.cpp:425] conv5 <- conv4
I0817 20:50:17.238605 29967 net.cpp:399] conv5 -> conv5
I0817 20:50:17.252084 29967 net.cpp:141] Setting up conv5
I0817 20:50:17.252118 29967 net.cpp:148] Top shape: 1 256 13 13 (43264)
I0817 20:50:17.252123 29967 net.cpp:156] Memory required for data: 6551920
I0817 20:50:17.252137 29967 layer_factory.hpp:77] Creating layer relu5
I0817 20:50:17.252171 29967 net.cpp:91] Creating Layer relu5
I0817 20:50:17.252176 29967 net.cpp:425] relu5 <- conv5
I0817 20:50:17.252182 29967 net.cpp:386] relu5 -> conv5 (in-place)
I0817 20:50:17.252189 29967 net.cpp:141] Setting up relu5
I0817 20:50:17.252194 29967 net.cpp:148] Top shape: 1 256 13 13 (43264)
I0817 20:50:17.252198 29967 net.cpp:156] Memory required for data: 6724976
I0817 20:50:17.252202 29967 layer_factory.hpp:77] Creating layer pool5
I0817 20:50:17.252208 29967 net.cpp:91] Creating Layer pool5
I0817 20:50:17.252213 29967 net.cpp:425] pool5 <- conv5
I0817 20:50:17.252219 29967 net.cpp:399] pool5 -> pool5
I0817 20:50:17.252260 29967 net.cpp:141] Setting up pool5
I0817 20:50:17.252269 29967 net.cpp:148] Top shape: 1 256 6 6 (9216)
I0817 20:50:17.252275 29967 net.cpp:156] Memory required for data: 6761840
I0817 20:50:17.252279 29967 layer_factory.hpp:77] Creating layer fc6
I0817 20:50:17.252290 29967 net.cpp:91] Creating Layer fc6
I0817 20:50:17.252293 29967 net.cpp:425] fc6 <- pool5
I0817 20:50:17.252301 29967 net.cpp:399] fc6 -> fc6
I0817 20:50:18.372570 29967 net.cpp:141] Setting up fc6
I0817 20:50:18.372648 29967 net.cpp:148] Top shape: 1 4096 (4096)
I0817 20:50:18.372653 29967 net.cpp:156] Memory required for data: 6778224
I0817 20:50:18.372678 29967 layer_factory.hpp:77] Creating layer relu6
I0817 20:50:18.372721 29967 net.cpp:91] Creating Layer relu6
I0817 20:50:18.372731 29967 net.cpp:425] relu6 <- fc6
I0817 20:50:18.372740 29967 net.cpp:386] relu6 -> fc6 (in-place)
I0817 20:50:18.372752 29967 net.cpp:141] Setting up relu6
I0817 20:50:18.372758 29967 net.cpp:148] Top shape: 1 4096 (4096)
I0817 20:50:18.372762 29967 net.cpp:156] Memory required for data: 6794608
I0817 20:50:18.372766 29967 layer_factory.hpp:77] Creating layer drop6
I0817 20:50:18.372772 29967 net.cpp:91] Creating Layer drop6
I0817 20:50:18.372778 29967 net.cpp:425] drop6 <- fc6
I0817 20:50:18.372786 29967 net.cpp:386] drop6 -> fc6 (in-place)
I0817 20:50:18.372838 29967 net.cpp:141] Setting up drop6
I0817 20:50:18.372848 29967 net.cpp:148] Top shape: 1 4096 (4096)
I0817 20:50:18.372854 29967 net.cpp:156] Memory required for data: 6810992
I0817 20:50:18.372859 29967 layer_factory.hpp:77] Creating layer fc7
I0817 20:50:18.372869 29967 net.cpp:91] Creating Layer fc7
I0817 20:50:18.372874 29967 net.cpp:425] fc7 <- fc6
I0817 20:50:18.372882 29967 net.cpp:399] fc7 -> fc7
I0817 20:50:18.870275 29967 net.cpp:141] Setting up fc7
I0817 20:50:18.870324 29967 net.cpp:148] Top shape: 1 4096 (4096)
I0817 20:50:18.870329 29967 net.cpp:156] Memory required for data: 6827376
I0817 20:50:18.870340 29967 layer_factory.hpp:77] Creating layer relu7
I0817 20:50:18.870352 29967 net.cpp:91] Creating Layer relu7
I0817 20:50:18.870357 29967 net.cpp:425] relu7 <- fc7
I0817 20:50:18.870367 29967 net.cpp:386] relu7 -> fc7 (in-place)
I0817 20:50:18.870378 29967 net.cpp:141] Setting up relu7
I0817 20:50:18.870388 29967 net.cpp:148] Top shape: 1 4096 (4096)
I0817 20:50:18.870391 29967 net.cpp:156] Memory required for data: 6843760
I0817 20:50:18.870395 29967 layer_factory.hpp:77] Creating layer drop7
I0817 20:50:18.870403 29967 net.cpp:91] Creating Layer drop7
I0817 20:50:18.870405 29967 net.cpp:425] drop7 <- fc7
I0817 20:50:18.870410 29967 net.cpp:386] drop7 -> fc7 (in-place)
I0817 20:50:18.870435 29967 net.cpp:141] Setting up drop7
I0817 20:50:18.870445 29967 net.cpp:148] Top shape: 1 4096 (4096)
I0817 20:50:18.870448 29967 net.cpp:156] Memory required for data: 6860144
I0817 20:50:18.870452 29967 layer_factory.hpp:77] Creating layer fc8_swim
I0817 20:50:18.870462 29967 net.cpp:91] Creating Layer fc8_swim
I0817 20:50:18.870467 29967 net.cpp:425] fc8_swim <- fc7
I0817 20:50:18.870473 29967 net.cpp:399] fc8_swim -> fc8
I0817 20:50:18.872264 29967 net.cpp:141] Setting up fc8_swim
I0817 20:50:18.872277 29967 net.cpp:148] Top shape: 1 14 (14)
I0817 20:50:18.872293 29967 net.cpp:156] Memory required for data: 6860200
I0817 20:50:18.872299 29967 layer_factory.hpp:77] Creating layer loss
I0817 20:50:18.872318 29967 net.cpp:91] Creating Layer loss
I0817 20:50:18.872337 29967 net.cpp:425] loss <- fc8
I0817 20:50:18.872346 29967 net.cpp:425] loss <- label
I0817 20:50:18.872366 29967 net.cpp:399] loss -> (automatic)
I0817 20:50:18.872411 29967 layer_factory.hpp:77] Creating layer loss
…
I0817 20:50:18.872670 29967 net.cpp:274] Network initialization done.
I0817 20:50:18.873241 29967 solver.cpp:181] Creating test net (#0) specified by test_net file: /home/liebmatt/caffe/models/uni_augsburg_swim/val.prototxt
I0817 20:50:18.873399 29967 net.cpp:49] Initializing net from parameters: 
name: "CaffeNet"
state {
  phase: TEST
}
layer {
  name: "data"
  type: "ImageData"
  top: "data"
  top: "label"
  transform_param {
  }
  image_data_param {
    source: "/data/raid_ssd/Datasets/FlickrLogos_v3/train/filelist_abs.txt"
    batch_size: 1
    new_height: 227
    new_width: 227
  }
}
layer {
  name: "conv1"
  type: "Convolution"
  bottom: "data"
  top: "conv1"
  convolution_param {
    num_output: 96
    kernel_size: 11
    stride: 4
  }
}
layer {
  name: "relu1"
  type: "ReLU"
  bottom: "conv1"
  top: "conv1"
}
layer {
  name: "pool1"
  type: "Pooling"
  bottom: "conv1"
  top: "pool1"
  pooling_param {
    pool: MAX
    kernel_size: 3
    stride: 2
  }
}
layer {
  name: "norm1"
  type: "LRN"
  bottom: "pool1"
  top: "norm1"
  lrn_param {
    local_size: 5
    alpha: 0.0001
    beta: 0.75
  }
}
layer {
  name: "conv2"
  type: "Convolution"
  bottom: "norm1"
  top: "conv2"
  convolution_param {
    num_output: 256
    pad: 2
    kernel_size: 5
    group: 2
  }
}
layer {
  name: "relu2"
  type: "ReLU"
  bottom: "conv2"
  top: "conv2"
}
layer {
  name: "pool2"
  type: "Pooling"
  bottom: "conv2"
  top: "pool2"
  pooling_param {
    pool: MAX
    kernel_size: 3
    stride: 2
  }
}
layer {
  name: "norm2"
  type: "LRN"
  bottom: "pool2"
  top: "norm2"
  lrn_param {
    local_size: 5
    alpha: 0.0001
    beta: 0.75
  }
}
layer {
  name: "conv3"
  type: "Convolution"
  bottom: "norm2"
  top: "conv3"
  convolution_param {
    num_output: 384
    pad: 1
    kernel_size: 3
  }
}
layer {
  name: "relu3"
  type: "ReLU"
  bottom: "conv3"
  top: "conv3"
}
layer {
  name: "conv4"
  type: "Convolution"
  bottom: "conv3"
  top: "conv4"
  convolution_param {
    num_output: 384
    pad: 1
    kernel_size: 3
    group: 2
  }
}
layer {
  name: "relu4"
  type: "ReLU"
  bottom: "conv4"
  top: "conv4"
}
layer {
  name: "conv5"
  type: "Convolution"
  bottom: "conv4"
  top: "conv5"
  convolution_param {
    num_output: 256
    pad: 1
    kernel_size: 3
    group: 2
  }
}
layer {
  name: "relu5"
  type: "ReLU"
  bottom: "conv5"
  top: "conv5"
}
layer {
  name: "pool5"
  type: "Pooling"
  bottom: "conv5"
  top: "pool5"
  pooling_param {
    pool: MAX
    kernel_size: 3
    stride: 2
  }
}
layer {
  name: "fc6"
  type: "InnerProduct"
  bottom: "pool5"
  top: "fc6"
  inner_product_param {
    num_output: 4096
  }
}
layer {
  name: "relu6"
  type: "ReLU"
  bottom: "fc6"
  top: "fc6"
}
layer {
  name: "drop6"
  type: "Dropout"
  bottom: "fc6"
  top: "fc6"
  dropout_param {
    dropout_ratio: 0.5
  }
}
layer {
  name: "fc7"
  type: "InnerProduct"
  bottom: "fc6"
  top: "fc7"
  inner_product_param {
    num_output: 4096
  }
}
layer {
  name: "relu7"
  type: "ReLU"
  bottom: "fc7"
  top: "fc7"
}
layer {
  name: "drop7"
  type: "Dropout"
  bottom: "fc7"
  top: "fc7"
  dropout_param {
    dropout_ratio: 0.5
  }
}
layer {
  name: "fc8_swim"
  type: "InnerProduct"
  bottom: "fc7"
  top: "fc8"
  inner_product_param {
    num_output: 14
  }
}
layer {
  name: "prob"
  type: "Softmax"
  bottom: "fc8"
  top: "prob"
}
layer {
  name: "accuracy"
  type: "Accuracy"
  bottom: "prob"
  bottom: "label"
  top: "accuracy"
}
I0817 20:50:18.873487 29967 layer_factory.hpp:77] Creating layer data
I0817 20:50:18.873504 29967 net.cpp:91] Creating Layer data
I0817 20:50:18.873510 29967 net.cpp:399] data -> data
I0817 20:50:18.873519 29967 net.cpp:399] data -> label
I0817 20:50:18.873529 29967 image_data_layer.cpp:38] Opening file /data/raid_ssd/Datasets/FlickrLogos_v3/train/filelist_abs.txt
I0817 20:50:18.873847 29967 image_data_layer.cpp:58] A total of 833 images.
I0817 20:50:18.892875 29967 image_data_layer.cpp:85] output data size: 1,3,227,227
I0817 20:50:18.895823 29967 net.cpp:141] Setting up data
I0817 20:50:18.895859 29967 net.cpp:148] Top shape: 1 3 227 227 (154587)
I0817 20:50:18.895864 29967 net.cpp:148] Top shape: 1 (1)
I0817 20:50:18.895869 29967 net.cpp:156] Memory required for data: 618352
I0817 20:50:18.895879 29967 layer_factory.hpp:77] Creating layer conv1
I0817 20:50:18.895907 29967 net.cpp:91] Creating Layer conv1
I0817 20:50:18.895915 29967 net.cpp:425] conv1 <- data
I0817 20:50:18.895928 29967 net.cpp:399] conv1 -> conv1
I0817 20:50:18.896383 29967 net.cpp:141] Setting up conv1
I0817 20:50:18.896394 29967 net.cpp:148] Top shape: 1 96 55 55 (290400)
I0817 20:50:18.896396 29967 net.cpp:156] Memory required for data: 1779952
I0817 20:50:18.896410 29967 layer_factory.hpp:77] Creating layer relu1
I0817 20:50:18.896420 29967 net.cpp:91] Creating Layer relu1
I0817 20:50:18.896425 29967 net.cpp:425] relu1 <- conv1
I0817 20:50:18.896430 29967 net.cpp:386] relu1 -> conv1 (in-place)
I0817 20:50:18.896440 29967 net.cpp:141] Setting up relu1
I0817 20:50:18.896445 29967 net.cpp:148] Top shape: 1 96 55 55 (290400)
I0817 20:50:18.896448 29967 net.cpp:156] Memory required for data: 2941552
I0817 20:50:18.896452 29967 layer_factory.hpp:77] Creating layer pool1
I0817 20:50:18.896461 29967 net.cpp:91] Creating Layer pool1
I0817 20:50:18.896464 29967 net.cpp:425] pool1 <- conv1
I0817 20:50:18.896471 29967 net.cpp:399] pool1 -> pool1
I0817 20:50:18.896504 29967 net.cpp:141] Setting up pool1
I0817 20:50:18.896513 29967 net.cpp:148] Top shape: 1 96 27 27 (69984)
I0817 20:50:18.896517 29967 net.cpp:156] Memory required for data: 3221488
I0817 20:50:18.896522 29967 layer_factory.hpp:77] Creating layer norm1
I0817 20:50:18.896533 29967 net.cpp:91] Creating Layer norm1
I0817 20:50:18.896538 29967 net.cpp:425] norm1 <- pool1
I0817 20:50:18.896543 29967 net.cpp:399] norm1 -> norm1
I0817 20:50:18.896574 29967 net.cpp:141] Setting up norm1
I0817 20:50:18.896610 29967 net.cpp:148] Top shape: 1 96 27 27 (69984)
I0817 20:50:18.896615 29967 net.cpp:156] Memory required for data: 3501424
I0817 20:50:18.896618 29967 layer_factory.hpp:77] Creating layer conv2
I0817 20:50:18.896626 29967 net.cpp:91] Creating Layer conv2
I0817 20:50:18.896631 29967 net.cpp:425] conv2 <- norm1
I0817 20:50:18.896636 29967 net.cpp:399] conv2 -> conv2
I0817 20:50:18.897642 29967 net.cpp:141] Setting up conv2
I0817 20:50:18.897655 29967 net.cpp:148] Top shape: 1 256 27 27 (186624)
I0817 20:50:18.897657 29967 net.cpp:156] Memory required for data: 4247920
I0817 20:50:18.897666 29967 layer_factory.hpp:77] Creating layer relu2
I0817 20:50:18.897673 29967 net.cpp:91] Creating Layer relu2
I0817 20:50:18.897680 29967 net.cpp:425] relu2 <- conv2
I0817 20:50:18.897686 29967 net.cpp:386] relu2 -> conv2 (in-place)
I0817 20:50:18.897692 29967 net.cpp:141] Setting up relu2
I0817 20:50:18.897697 29967 net.cpp:148] Top shape: 1 256 27 27 (186624)
I0817 20:50:18.897701 29967 net.cpp:156] Memory required for data: 4994416
I0817 20:50:18.897703 29967 layer_factory.hpp:77] Creating layer pool2
I0817 20:50:18.897709 29967 net.cpp:91] Creating Layer pool2
I0817 20:50:18.897713 29967 net.cpp:425] pool2 <- conv2
I0817 20:50:18.897718 29967 net.cpp:399] pool2 -> pool2
I0817 20:50:18.897750 29967 net.cpp:141] Setting up pool2
I0817 20:50:18.897758 29967 net.cpp:148] Top shape: 1 256 13 13 (43264)
I0817 20:50:18.897761 29967 net.cpp:156] Memory required for data: 5167472
I0817 20:50:18.897764 29967 layer_factory.hpp:77] Creating layer norm2
I0817 20:50:18.897773 29967 net.cpp:91] Creating Layer norm2
I0817 20:50:18.897776 29967 net.cpp:425] norm2 <- pool2
I0817 20:50:18.897783 29967 net.cpp:399] norm2 -> norm2
I0817 20:50:18.897811 29967 net.cpp:141] Setting up norm2
I0817 20:50:18.897819 29967 net.cpp:148] Top shape: 1 256 13 13 (43264)
I0817 20:50:18.897821 29967 net.cpp:156] Memory required for data: 5340528
I0817 20:50:18.897825 29967 layer_factory.hpp:77] Creating layer conv3
I0817 20:50:18.897833 29967 net.cpp:91] Creating Layer conv3
I0817 20:50:18.897836 29967 net.cpp:425] conv3 <- norm2
I0817 20:50:18.897842 29967 net.cpp:399] conv3 -> conv3
I0817 20:50:18.900015 29967 net.cpp:141] Setting up conv3
I0817 20:50:18.900028 29967 net.cpp:148] Top shape: 1 384 13 13 (64896)
I0817 20:50:18.900032 29967 net.cpp:156] Memory required for data: 5600112
I0817 20:50:18.900041 29967 layer_factory.hpp:77] Creating layer relu3
I0817 20:50:18.900048 29967 net.cpp:91] Creating Layer relu3
I0817 20:50:18.900054 29967 net.cpp:425] relu3 <- conv3
I0817 20:50:18.900060 29967 net.cpp:386] relu3 -> conv3 (in-place)
I0817 20:50:18.900068 29967 net.cpp:141] Setting up relu3
I0817 20:50:18.900071 29967 net.cpp:148] Top shape: 1 384 13 13 (64896)
I0817 20:50:18.900074 29967 net.cpp:156] Memory required for data: 5859696
I0817 20:50:18.900077 29967 layer_factory.hpp:77] Creating layer conv4
I0817 20:50:18.900085 29967 net.cpp:91] Creating Layer conv4
I0817 20:50:18.900089 29967 net.cpp:425] conv4 <- conv3
I0817 20:50:18.900094 29967 net.cpp:399] conv4 -> conv4
I0817 20:50:18.901721 29967 net.cpp:141] Setting up conv4
I0817 20:50:18.901732 29967 net.cpp:148] Top shape: 1 384 13 13 (64896)
I0817 20:50:18.901746 29967 net.cpp:156] Memory required for data: 6119280
I0817 20:50:18.901751 29967 layer_factory.hpp:77] Creating layer relu4
I0817 20:50:18.901758 29967 net.cpp:91] Creating Layer relu4
I0817 20:50:18.901762 29967 net.cpp:425] relu4 <- conv4
I0817 20:50:18.901768 29967 net.cpp:386] relu4 -> conv4 (in-place)
I0817 20:50:18.901774 29967 net.cpp:141] Setting up relu4
I0817 20:50:18.901779 29967 net.cpp:148] Top shape: 1 384 13 13 (64896)
I0817 20:50:18.901782 29967 net.cpp:156] Memory required for data: 6378864
I0817 20:50:18.901785 29967 layer_factory.hpp:77] Creating layer conv5
I0817 20:50:18.901793 29967 net.cpp:91] Creating Layer conv5
I0817 20:50:18.901796 29967 net.cpp:425] conv5 <- conv4
I0817 20:50:18.901803 29967 net.cpp:399] conv5 -> conv5
I0817 20:50:18.902979 29967 net.cpp:141] Setting up conv5
I0817 20:50:18.902992 29967 net.cpp:148] Top shape: 1 256 13 13 (43264)
I0817 20:50:18.903020 29967 net.cpp:156] Memory required for data: 6551920
I0817 20:50:18.903031 29967 layer_factory.hpp:77] Creating layer relu5
I0817 20:50:18.903038 29967 net.cpp:91] Creating Layer relu5
I0817 20:50:18.903043 29967 net.cpp:425] relu5 <- conv5
I0817 20:50:18.903048 29967 net.cpp:386] relu5 -> conv5 (in-place)
I0817 20:50:18.903055 29967 net.cpp:141] Setting up relu5
I0817 20:50:18.903059 29967 net.cpp:148] Top shape: 1 256 13 13 (43264)
I0817 20:50:18.903062 29967 net.cpp:156] Memory required for data: 6724976
I0817 20:50:18.903066 29967 layer_factory.hpp:77] Creating layer pool5
I0817 20:50:18.903072 29967 net.cpp:91] Creating Layer pool5
I0817 20:50:18.903076 29967 net.cpp:425] pool5 <- conv5
I0817 20:50:18.903081 29967 net.cpp:399] pool5 -> pool5
I0817 20:50:18.903115 29967 net.cpp:141] Setting up pool5
I0817 20:50:18.903123 29967 net.cpp:148] Top shape: 1 256 6 6 (9216)
I0817 20:50:18.903126 29967 net.cpp:156] Memory required for data: 6761840
I0817 20:50:18.903131 29967 layer_factory.hpp:77] Creating layer fc6
I0817 20:50:18.903141 29967 net.cpp:91] Creating Layer fc6
I0817 20:50:18.903144 29967 net.cpp:425] fc6 <- pool5
I0817 20:50:18.903151 29967 net.cpp:399] fc6 -> fc6
I0817 20:50:18.992224 29967 net.cpp:141] Setting up fc6
I0817 20:50:18.992275 29967 net.cpp:148] Top shape: 1 4096 (4096)
I0817 20:50:18.992280 29967 net.cpp:156] Memory required for data: 6778224
I0817 20:50:18.992292 29967 layer_factory.hpp:77] Creating layer relu6
I0817 20:50:18.992308 29967 net.cpp:91] Creating Layer relu6
I0817 20:50:18.992314 29967 net.cpp:425] relu6 <- fc6
I0817 20:50:18.992326 29967 net.cpp:386] relu6 -> fc6 (in-place)
I0817 20:50:18.992338 29967 net.cpp:141] Setting up relu6
I0817 20:50:18.992342 29967 net.cpp:148] Top shape: 1 4096 (4096)
I0817 20:50:18.992347 29967 net.cpp:156] Memory required for data: 6794608
I0817 20:50:18.992349 29967 layer_factory.hpp:77] Creating layer drop6
I0817 20:50:18.992358 29967 net.cpp:91] Creating Layer drop6
I0817 20:50:18.992362 29967 net.cpp:425] drop6 <- fc6
I0817 20:50:18.992368 29967 net.cpp:386] drop6 -> fc6 (in-place)
I0817 20:50:18.992391 29967 net.cpp:141] Setting up drop6
I0817 20:50:18.992408 29967 net.cpp:148] Top shape: 1 4096 (4096)
I0817 20:50:18.992413 29967 net.cpp:156] Memory required for data: 6810992
I0817 20:50:18.992416 29967 layer_factory.hpp:77] Creating layer fc7
I0817 20:50:18.992425 29967 net.cpp:91] Creating Layer fc7
I0817 20:50:18.992429 29967 net.cpp:425] fc7 <- fc6
I0817 20:50:18.992436 29967 net.cpp:399] fc7 -> fc7
I0817 20:50:19.031090 29967 net.cpp:141] Setting up fc7
I0817 20:50:19.031141 29967 net.cpp:148] Top shape: 1 4096 (4096)
I0817 20:50:19.031146 29967 net.cpp:156] Memory required for data: 6827376
I0817 20:50:19.031158 29967 layer_factory.hpp:77] Creating layer relu7
I0817 20:50:19.031173 29967 net.cpp:91] Creating Layer relu7
I0817 20:50:19.031180 29967 net.cpp:425] relu7 <- fc7
I0817 20:50:19.031190 29967 net.cpp:386] relu7 -> fc7 (in-place)
I0817 20:50:19.031203 29967 net.cpp:141] Setting up relu7
I0817 20:50:19.031208 29967 net.cpp:148] Top shape: 1 4096 (4096)
I0817 20:50:19.031211 29967 net.cpp:156] Memory required for data: 6843760
I0817 20:50:19.031214 29967 layer_factory.hpp:77] Creating layer drop7
I0817 20:50:19.031224 29967 net.cpp:91] Creating Layer drop7
I0817 20:50:19.031227 29967 net.cpp:425] drop7 <- fc7
I0817 20:50:19.031232 29967 net.cpp:386] drop7 -> fc7 (in-place)
I0817 20:50:19.031255 29967 net.cpp:141] Setting up drop7
I0817 20:50:19.031265 29967 net.cpp:148] Top shape: 1 4096 (4096)
I0817 20:50:19.031268 29967 net.cpp:156] Memory required for data: 6860144
I0817 20:50:19.031271 29967 layer_factory.hpp:77] Creating layer fc8_swim
I0817 20:50:19.031294 29967 net.cpp:91] Creating Layer fc8_swim
I0817 20:50:19.031301 29967 net.cpp:425] fc8_swim <- fc7
I0817 20:50:19.031308 29967 net.cpp:399] fc8_swim -> fc8
I0817 20:50:19.031497 29967 net.cpp:141] Setting up fc8_swim
I0817 20:50:19.031507 29967 net.cpp:148] Top shape: 1 14 (14)
I0817 20:50:19.031512 29967 net.cpp:156] Memory required for data: 6860200
I0817 20:50:19.031548 29967 layer_factory.hpp:77] Creating layer prob
I0817 20:50:19.031556 29967 net.cpp:91] Creating Layer prob
I0817 20:50:19.031560 29967 net.cpp:425] prob <- fc8
I0817 20:50:19.031568 29967 net.cpp:399] prob -> prob
I0817 20:50:19.031620 29967 net.cpp:141] Setting up prob
I0817 20:50:19.031630 29967 net.cpp:148] Top shape: 1 14 (14)
I0817 20:50:19.031632 29967 net.cpp:156] Memory required for data: 6860256
I0817 20:50:19.031636 29967 layer_factory.hpp:77] Creating layer accuracy
I0817 20:50:19.031657 29967 net.cpp:91] Creating Layer accuracy
I0817 20:50:19.031661 29967 net.cpp:425] accuracy <- prob
I0817 20:50:19.031666 29967 net.cpp:425] accuracy <- label
I0817 20:50:19.031674 29967 net.cpp:399] accuracy -> accuracy
…
